_________________________________________________________________
Layer (type)                 Output Shape              Param #   
=================================================================
input_1 (InputLayer)         (None, 224, 224, 3)       0         
_________________________________________________________________
conv2d_1 (Conv2D)            (None, 214, 214, 3)       1092      
_________________________________________________________________
zero_padding2d_1 (ZeroPaddin (None, 216, 216, 3)       0         
_________________________________________________________________
lr_n2d_1 (LRN2D)             (None, 216, 216, 3)       0         
_________________________________________________________________
zero_padding2d_2 (ZeroPaddin (None, 218, 218, 3)       0         
_________________________________________________________________
max_pooling2d_1 (MaxPooling2 (None, 109, 109, 3)       0         
_________________________________________________________________
zero_padding2d_3 (ZeroPaddin (None, 111, 111, 3)       0         
_________________________________________________________________
conv2d_2 (Conv2D)            (None, 107, 107, 48)      3648      
_________________________________________________________________
zero_padding2d_4 (ZeroPaddin (None, 109, 109, 48)      0         
_________________________________________________________________
lr_n2d_2 (LRN2D)             (None, 109, 109, 48)      0         
_________________________________________________________________
zero_padding2d_5 (ZeroPaddin (None, 111, 111, 48)      0         
_________________________________________________________________
max_pooling2d_2 (MaxPooling2 (None, 55, 55, 48)        0         
_________________________________________________________________
zero_padding2d_6 (ZeroPaddin (None, 57, 57, 48)        0         
_________________________________________________________________
conv2d_3 (Conv2D)            (None, 55, 55, 128)       55424     
_________________________________________________________________
zero_padding2d_7 (ZeroPaddin (None, 57, 57, 128)       0         
_________________________________________________________________
lr_n2d_3 (LRN2D)             (None, 57, 57, 128)       0         
_________________________________________________________________
zero_padding2d_8 (ZeroPaddin (None, 59, 59, 128)       0         
_________________________________________________________________
max_pooling2d_3 (MaxPooling2 (None, 29, 29, 128)       0         
_________________________________________________________________
zero_padding2d_9 (ZeroPaddin (None, 31, 31, 128)       0         
_________________________________________________________________
conv2d_4 (Conv2D)            (None, 29, 29, 192)       221376    
_________________________________________________________________
zero_padding2d_10 (ZeroPaddi (None, 31, 31, 192)       0         
_________________________________________________________________
lr_n2d_4 (LRN2D)             (None, 31, 31, 192)       0         
_________________________________________________________________
zero_padding2d_11 (ZeroPaddi (None, 33, 33, 192)       0         
_________________________________________________________________
max_pooling2d_4 (MaxPooling2 (None, 16, 16, 192)       0         
_________________________________________________________________
zero_padding2d_12 (ZeroPaddi (None, 18, 18, 192)       0         
_________________________________________________________________
conv2d_5 (Conv2D)            (None, 16, 16, 192)       331968    
_________________________________________________________________
zero_padding2d_13 (ZeroPaddi (None, 18, 18, 192)       0         
_________________________________________________________________
lr_n2d_5 (LRN2D)             (None, 18, 18, 192)       0         
_________________________________________________________________
zero_padding2d_14 (ZeroPaddi (None, 20, 20, 192)       0         
_________________________________________________________________
max_pooling2d_5 (MaxPooling2 (None, 10, 10, 192)       0         
_________________________________________________________________
zero_padding2d_15 (ZeroPaddi (None, 12, 12, 192)       0         
_________________________________________________________________
flatten_1 (Flatten)          (None, 27648)             0         
_________________________________________________________________
dense_1 (Dense)              (None, 4096)              113250304 
_________________________________________________________________
dense_2 (Dense)              (None, 4096)              16781312  
_________________________________________________________________
dense_3 (Dense)              (None, 1000)              4097000   
=================================================================
Total params: 134,742,124
Trainable params: 134,742,124
Non-trainable params: 0
_________________________________________________________________
