_________________________________________________________________
Layer (type)                 Output Shape              Param #   
=================================================================
dense_1 (Dense)              (None, 8192)              62914560  
_________________________________________________________________
batch_normalization_1 (Batch (None, 8192)              32768     
_________________________________________________________________
activation_1 (Activation)    (None, 8192)              0         
_________________________________________________________________
dense_2 (Dense)              (None, 8192)              67108864  
_________________________________________________________________
batch_normalization_2 (Batch (None, 8192)              32768     
_________________________________________________________________
activation_2 (Activation)    (None, 8192)              0         
_________________________________________________________________
dense_3 (Dense)              (None, 51)                417792    
_________________________________________________________________
batch_normalization_3 (Batch (None, 51)                204       
_________________________________________________________________
activation_3 (Activation)    (None, 51)                0         
=================================================================
Total params: 130,506,956
Trainable params: 130,474,086
Non-trainable params: 32,870
_________________________________________________________________
None
