_________________________________________________________________
Layer (type)                 Output Shape              Param #   
=================================================================
conv2d_1 (Conv2D)            (None, 12, 16, 256)       128000    
_________________________________________________________________
batch_normalization_1 (Batch (None, 12, 16, 256)       1024      
_________________________________________________________________
relu_1 (Activation)          (None, 12, 16, 256)       0         
_________________________________________________________________
conv2d_2 (Conv2D)            (None, 12, 16, 256)       589824    
_________________________________________________________________
batch_normalization_2 (Batch (None, 12, 16, 256)       1024      
_________________________________________________________________
relu_2 (Activation)          (None, 12, 16, 256)       0         
_________________________________________________________________
conv2d_3 (Conv2D)            (None, 12, 16, 256)       589824    
_________________________________________________________________
batch_normalization_3 (Batch (None, 12, 16, 256)       1024      
_________________________________________________________________
relu_3 (Activation)          (None, 12, 16, 256)       0         
_________________________________________________________________
flatten_1 (Flatten)          (None, 49152)             0         
_________________________________________________________________
dense_4 (Dense)              (None, 256)               12582912  
_________________________________________________________________
batch_normalization_4 (Batch (None, 256)               1024      
_________________________________________________________________
relu_4 (Activation)          (None, 256)               0         
_________________________________________________________________
dense_5 (Dense)              (None, 51)                13056     
_________________________________________________________________
batch_normalization_5 (Batch (None, 51)                204       
_________________________________________________________________
activation_5 (Activation)    (None, 51)                0         
=================================================================
Total params: 13,907,916
Trainable params: 13,905,766
Non-trainable params: 2,150
_________________________________________________________________
None
